PW model_Pendulum/Weights_updated1.npy (npy, 21728 bytes, 1 tensors)

array f8 [225, 2, 6]
00000000: 41c5 e557 5077 c03f 48d9 2c19 0d1c dabf
00000010: bea0 318e 9e90 e1bf a343 3457 7ca1 af3f
00000020: 0000 0000 0000 0000 0000 0000 0000 0000
00000030: 00f5 3fe3 16a2 873f 50f8 40c0 744a ebbf
00000040: 2581 2658 49e1 07c0 e273 14e5 a962 0140
00000050: 0000 0000 0000 0000 0000 0000 0000 0000
00000060: 864f dcd1 5629 a23f f239 ca41 e8d2 91bf
00000070: cff8 a1d3 81db eebf c7c7 ca07 e8ee 693f
00000080: 0000 0000 0000 0000 0000 0000 0000 0000
00000090: d8d3 cf50 8b15 4340 acd9 3b24 a54b 2a40
000000a0: 0c84 ddcc a9fb 05c0 0293 5a0d a6b0 4340
000000b0: 0000 0000 0000 0000 0000 0000 0000 0000
000000c0: 7c6b b44e b754 813f d012 5a38 2b4d e9be
000000d0: d1ac a37c acdf efbf d4f8 36f5 0e98 253f
000000e0: 0000 0000 0000 0000 0000 0000 0000 0000
000000f0: ca62 a864 6b5b 4b40 8a83 c5f6 aa9c 3140
00000100: 3c0e 7992 6416 f8bf f258 e11c e8fa 4340
00000110: 0000 0000 0000 0000 0000 0000 0000 0000
00000120: 9cda 8b55 5838 7d3f cb27 c860 50d4 62bf
00000130: abbf 4bda ebbe efbf b3f8 448b 9794 353f
00000140: 0000 0000 0000 0000 0000 0000 0000 0000
00000150: 2369 8bbb 2953 4940 7631 2c1a ea06 3040
00000160: fbbe a68f 0d0b f6bf ef28 ddcb edf7 4340
00000170: 0000 0000 0000 0000 0000 0000 0000 0000
00000180: 2ab9 46c5 6bdf 873f ce70 c965 ca92 64bf
00000190: 5894 1acf 918b efbf 942b 307c e134 4a3f
000001a0: 0000 0000 0000 0000 0000 0000 0000 0000
000001b0: 0b5d f8cd e03c 4840 87c2 6680 089f 2e40
000001c0: 6209 64bd 1c92 fabf 380c ef1b 600a 4440
000001d0: 0000 0000 0000 0000 0000 0000 0000 0000
000001e0: 2ccc 8ade 2e06 8b3f 6453 2cf3 2629 3f3f
000001f0: a0dd f1ad e286 efbf 264c ae83 2890 34bf
00000200: 0000 0000 0000 0000 0000 0000 0000 0000
00000210: 9c14 a6cd a8a1 4540 b866 85dd ffcb 2a40
00000220: 2378 6ecd 11ae fcbf 0b34 6e07 e622 4440
00000230: 0000 0000 0000 0000 0000 0000 0000 0000
00000240: 35ca fee9 30fa 7e3f 8a63 1adf eafc 6abf
00000250: f3cd c221 21fe eebf 5a00 8b71 2b4d 613f
00000260: 0000 0000 0000 0000 0000 0000 0000 0000
00000270: 9fa2 f74d bdc5 4540 ad57 269d eba0 2a40
00000280: 3058 6c0a 1f88 f6bf 5aa9 2b22 2219 4440
00000290: 0000 0000 0000 0000 0000 0000 0000 0000
000002a0: c0ab 2745 6e94 a4bf cab4 9819 dff7 87bf
000002b0: 6bdf 4335 e93a edbf 801a 42d5 e113 66bf
000002c0: 0000 0000 0000 0000 0000 0000 0000 0000
000002d0: 44b8 fa56 5c39 4140 cf21 cfe0 08d1 2440
000002e0: 6ab9 53e3 d221 fd3f e9b6 c725 67e4 4340
000002f0: 0000 0000 0000 0000 0000 0000 0000 0000
00000300: 01bf 2988 1b2f afbf 9410 f1a7 b65b 86bf
00000310: 611d ed5d 8cb3 edbf ad24 9173 7a7e 22bf
00000320: 0000 0000 0000 0000 0000 0000 0000 0000
00000330: 619f cdf3 d266 4240 23aa c996 fbfd 2640
00000340: 0d12 2214 1246 0740 ba18 c6e5 c30e 4440
00000350: 0000 0000 0000 0000 0000 0000 0000 0000
00000360: 0719 ec71 2024 b6bf 73f6 08ea 309c 71bf
00000370: c54f 5cb4 db2d edbf a2fa e45f 0b99 62bf
00000380: 0000 0000 0000 0000 0000 0000 0000 0000
00000390: 78d5 0644 ab09 3e40 2904 599f 8a2a 2440
000003a0: 596e 2a06 5adc 1140 1ec0 128f e526 4440
000003b0: 0000 0000 0000 0000 0000 0000 0000 0000
000003c0: d27d 987c c002 c1bf 375c fb0c 2463 ab3f
000003d0: c2c6 b5f0 e48b e9bf be43 feeb a314 a0bf
000003e0: 0000 0000 0000 0000 0000 0000 0000 0000
000003f0: 80fb 6c1a e608 3140 fc54 a385 577d 2140
00000400: 4beb 8f08 b2e9 1d40 5ae7 3338 4c4c 4340
00000410: 0000 0000 0000 0000 0000 0000 0000 0000
00000420: 75fd 2620 a613 c43f edde 372b 447b cb3f
00000430: c563 c40c fe03 e7bf da9e df43 5960 a6bf
00000440: 0000 0000 0000 0000 0000 0000 0000 0000
00000450: dc91 3a8a c9a5 2840 f36d 34fe 59e9 0fc0
00000460: 8cd1 17bc 7726 29c0 9ee0 e651 3b82 4540
00000470: 0000 0000 0000 0000 0000 0000 0000 0000
00000480: c4fb 8012 dfb1 c1bf aac3 9aeb b053 da3f
00000490: ec80 5713 7927 d1bf b277 2cbf 9b28 a7bf
000004a0: 0000 0000 0000 0000 0000 0000 0000 0000
000004b0: fca5 be73 16d9 eb3f fe9a 25d8 4726 f93f
000004c0: e2b9 818e 9bd9 ff3f 0ad5 e946 e938 2d40
000004d0: 0000 0000 0000 0000 0000 0000 0000 0000
000004e0: f168 e388 b5f8 e43e f168 e388 b5f8 e43e
000004f0: f168 e388 b5f8 e43e f168 e388 b5f8 e43e
00000500: 0000 0000 0000 0000 0000 0000 0000 0000
00000510: f168 e388 b5f8 e43e f168 e388 b5f8 e43e
00000520: f168 e388 b5f8 e43e f168 e388 b5f8 e43e
00000530: 0000 0000 0000 0000 0000 0000 0000 0000
00000540: f168 e388 b5f8 e43e f168 e388 b5f8 e43e
00000550: f168 e388 b5f8 e43e f168 e388 b5f8 e43e
00000560: 0000 0000 0000 0000 0000 0000 0000 0000
00000570: f168 e388 b5f8 e43e f168 e388 b5f8 e43e
00000580: f168 e388 b5f8 e43e f168 e388 b5f8 e43e
00000590: 0000 0000 0000 0000 0000 0000 0000 0000
000005a0: d470 2be9 88cc bd3f 6ef5 2026 77d3 d6bf
000005b0: 7602 c471 2e5b e4bf 9861 5669 26ac b23f
000005c0: 0000 0000 0000 0000 0000 0000 0000 0000
000005d0: 8061 6f9f b18b d43f 08ae 4c37 a89f f6bf
000005e0: eb13 9e7b 5bc5 0ec0 4ace a52d 3e8f fe3f
000005f0: 0000 0000 0000 0000 0000 0000 0000 0000
00000600: c0a9 e8cb 8d6c c23f a5d1 dec9 3db2 b6bf
00000610: 9b1e 7050 3f4c ebbf 739d d87f 5e5b 9bbf
00000620: 0000 0000 0000 0000 0000 0000 0000 0000
00000630: 7ce3 f19f 3fa5 0340 b750 929d c014 f43f
00000640: cf90 c65b 5b6d 17c0 56c1 7952 e069 4240
00000650: 0000 0000 0000 0000 0000 0000 0000 0000
00000660: 7db6 aec6 784f 223f 741d f7bc b8d1 62bf
00000670: cea1 d0d0 5fe9 efbf e558 be95 c865 2d3f
00000680: 0000 0000 0000 0000 0000 0000 0000 0000
00000690: ac70 6cd5 6625 4940 925a 0b4d baa0 2f40
000006a0: 9335 e5a4 94a4 f6bf d38d 88fc 94fd 4340
000006b0: 0000 0000 0000 0000 0000 0000 0000 0000
000006c0: f41a 0da2 9e5a 8b3f 0592 94a4 4fa5 53bf
000006d0: 69ed 7a83 4bb0 efbf c648 e0fc 78f1 133f
000006e0: 0000 0000 0000 0000 0000 0000 0000 0000
000006f0: 6ef6 6dc5 eff1 4640 1c00 a97e 3944 2c40
00000700: e782 0226 bdfc f8bf 062b dd9e 30f3 4340
00000710: 0000 0000 0000 0000 0000 0000 0000 0000
00000720: ea23 4fc1 c4ea 723f 5d9e 2bab 4dba 47bf
00000730: 5d13 c952 85d4 efbf 89aa 342f 0acf 2fbf
00000740: 0000 0000 0000 0000 0000 0000 0000 0000
00000750: 68f0 c0fa baa0 4840 ce3c 770c 9c33 2e40
00000760: 2d6b d389 c39c f1bf 9ec0 c156 abfa 4340
00000770: 0000 0000 0000 0000 0000 0000 0000 0000
00000780: 670c e5bc 4082 a03f 3895 819b ffdd 633f
00000790: 92f7 5099 bc1f efbf b7b5 07df 6b6f 513f
000007a0: 0000 0000 0000 0000 0000 0000 0000 0000
000007b0: 7b58 d269 c65b 4540 b296 60ff 5819 2a40
000007c0: 95b5 4b94 a54f 05c0 a437 b480 cdfe 4340
000007d0: 0000 0000 0000 0000 0000 0000 0000 0000
000007e0: 35df 61c7 bb00 903f b352 72d0 edb3 603f
000007f0: 68f7 aed5 83fe eebf c7e5 3ab3 1c27 46bf
0.1286411694705212 -0.4079621072627515 -0.5489037301276978 0.06177891315940733 0.0 0.0 0.011539629755129344 -0.852838874335939
-2.9850031744719154 2.173175611197153 0.0 0.0 0.03547164260649453 -0.01740610982465713 -0.9642953046275354 0.0031656772465220337
0.0 0.0 38.16831407687977 13.147744304948752 -2.7478824620343456 39.380067509866436 0.0 0.0
0.008462364282015626 -1.2064667099362213e-05 -0.9960539278376023 0.0001647489794844361 0.0 0.0 54.71421488019912 17.61198370287051
-1.505467006835615 39.96020852092069 0.0 0.0 0.007133812957127585 -0.0022985048183316917 -0.9920558227149646 0.000329291341831249
0.0 0.0 50.64971107775843 16.027009616650922 -1.3776984797840999 39.936944468487006 0.0 0.0
0.011656610448735966 -0.0025114014700148074 -0.9857873005863764 0.000799760913993241 0.0 0.0 48.4756104910576 15.31061173681634
-1.6606719396664507 40.08105801746609 0.0 0.0 0.013195387045334149 0.00047547532010243907 -0.9852155110701695 -0.0003137682830864373
0.0 0.0 43.26296396836662 13.398436472448665 -1.7924974465054297 40.272644928751184 0.0 0.0
0.007562819548115264 -0.003294428571120671 -0.9685216578858998 0.0021119926935569246 0.0 0.0 43.544839616695064 13.314297591143111
-1.4082327277333313 40.19635417110358 0.0 0.0 -0.04019493669678509 -0.011703246086734249 -0.9134412803968933 -0.002695027427822183
0.0 0.0 34.4481304859369 10.40827085998981 1.8207577590906916 39.784397814289896 0.0 0.0
-0.06090627705714092 -0.010917117119000154 -0.9281675180908843 -0.00014109844940638408 0.0 0.0 36.80331275501408 11.49606009685255
2.909214169778585 40.115353318907594 0.0 0.0 -0.08648875027947521 -0.004299346037951335 -0.9118479273479286 -0.0022702428970256686
0.0 0.0 30.037769557636665 10.083088855377428 4.465187164630685 40.30388058105039 0.0 0.0
-0.13289648135922377 0.05349075945348896 -0.7983269406670035 -0.031407473142400985 0.0 0.0 17.034761096579587 8.74480836504744
7.478218206199766 38.59607603582727 0.0 0.0 0.15684963769852414 0.2146992884661282 -0.7192373513563487 -0.043703832183209904
0.0 0.0 12.323803252839689 -3.988941179251691 -12.575132253558671 43.0174353005725 0.0 0.0
-0.13824070361621754 0.4113580990625062 -0.26803423775528645 -0.04523169239676807 0.0 0.0 0.8702499638213221 1.5718458598364005
1.9906268660230286 14.611154762309997 0.0 0.0 1e-05 1e-05 1e-05 1e-05
0.0 0.0 1e-05 1e-05 1e-05 1e-05 0.0 0.0
1e-05 1e-05 1e-05 1e-05 0.0 0.0 1e-05 1e-05
1e-05 1e-05 0.0 0.0 0.11640220348948854 -0.356656825289824 -0.6361305448518368 0.07293930122103232
0.0 0.0 0.32102623529274155 -1.4139787826669608 -3.846365895997669 1.9099714072334728 0.0 0.0
0.14393780189977967 -0.0886572473380683 -0.8530575343183558 -0.02671573310194959 0.0 0.0 2.455687760896067 1.2550665049684946
-5.856793817514883 36.827158269358435 0.0 0.0 0.000139697545220075 -0.0022972686926753753 -0.9972380712907183 0.00022428582712725252
0.0 0.0 50.29220073504379 15.813921363483392 -1.415180820581871 39.98110920589138 0.0 0.0
0.013356437034997871 -0.001199081207524989 -0.9902703826877942 7.607747031127256e-05 0.0 0.0 45.89012973660725 14.133251150255141
-1.561703823543377 39.89992128180715 0.0 0.0 0.004618424009955805 -0.0007241133920076849 -0.9946924797919611 -0.00024268149682290057
0.0 0.0 49.2557061616979 15.100799932055818 -1.1007724174330165 39.95835384808127 0.0 0.0
0.03224375062793499 0.002425193055432342 -0.972624110647063 0.0010641625814245945 0.0 0.0 42.71699259539397 13.049507122555358
-2.663890036163773 39.99064644622493 0.0 0.0 0.015627798122721265 0.002038921814867167 -0.9685687230591897 -0.0006760492455761207
